server/api/models/static/mlp.pt (torch, 16288 bytes, 6 tensors)

classifier.0.weight f4 [128, 7]
0	0x3f3080de	0.68946636
1	0xbe817375	-0.252834
2	0xbf480e43	-0.7814676
3	0x3e965fda	0.29370004
4	0xbc9fe51f	-0.019518433
5	0xbece1e8e	-0.40257686
6	0x3dfb7cd3	0.12279668
7	0xbed3186a	-0.41229564
8	0x3ec592de	0.38588613
9	0xbe9a6200	-0.30152893
10	0x3b021803	0.0019850738
11	0xbf881b7e	-1.063339
12	0xbab9abf3	-0.0014165625
13	0xbefcecba	-0.49399358
14	0xbe1ffc35	-0.15623553
15	0xbdc3b9f2	-0.09556951
16	0x3d1adbde	0.037807338
17	0xbedcbf92	-0.43114907
18	0xbeddbc3f	-0.43307683
19	0xbec1fbb2	-0.3788734
20	0xbf3783fe	-0.7168578
21	0xbd0d411b	-0.034485918
22	0x3f8bcbf9	1.0921623
23	0x3edb5ed4	0.42845786
24	0x3f0254af	0.50910467
25	0xbdee832f	-0.11646115
26	0xbd5aa49b	-0.053379636
27	0x3e3ab821	0.18234302
28	0xbd9a9b5d	-0.075491644
29	0x3f02376a	0.50865805
30	0x3e0ef69c	0.13961262
31	0xbf22a1f7	-0.6352839
32	0xbe5b4b34	-0.21415406
33	0xbe811638	-0.25212264
34	0x3f2a000c	0.6640632
35	0x3eda68a6	0.42657965
36	0x3eb9be87	0.36278173
37	0xbd907208	-0.07053
38	0xbe4c049f	-0.19923638
39	0x3f95623e	1.1670606
40	0xbd403741	-0.046927694
41	0x3ec31590	0.38102388
42	0xbe624f84	-0.22100645
43	0x3f08441d	0.5322893
44	0xbf1d36c7	-0.6141171
45	0xbf94414a	-1.1582425
46	0xbf02ae89	-0.5104757
47	0x3d9d52ea	0.0768183
48	0x3e958567	0.2920334
49	0x3f2f4fc6	0.684811
50	0x3e9097e5	0.28240886
51	0x3f0e5c92	0.5561
52	0x3e91c353	0.28469333
53	0xbf1a6a8d	-0.60318834
54	0x3edba5da	0.42899972
55	0xbee3d392	-0.44497353
56	0xbf1f987f	-0.62342066
57	0xbe3742c1	-0.17896558
58	0x3f0cc2b4	0.54984593
59	0xbe6dcaad	-0.23221846
60	0x3ea1da12	0.31611687
61	0xbd27afec	-0.040939257
62	0x3ebc6521	0.36795905
63	0xbea406e7	-0.32036516
64	0xbf1f2c14	-0.6217663
65	0x3e9c4530	0.30521536
66	0x3f16ad40	0.5885811
67	0x3d3e200b	0.046417277
68	0x3e9a3098	0.301152
69	0x3e7425b7	0.23842512
70	0x3d0824b5	0.03323813
71	0x3d1b9cb3	0.037991237
72	0xbdcc18ff	-0.09965705
73	0x3f68c34f	0.9092302
74	0xbd6f4db7	-0.058423724
75	0x3e172a43	0.14762215
76	0x3ebf54dd	0.37369433
77	0x3e1207e2	0.1426082
78	0xbe5cc004	-0.21557623
79	0x3d367347	0.04454353
80	0x3ecb6a52	0.39729553
81	0x3f982cc2	1.1888659
82	0x3e3174b7	0.1732968
83	0x3d7e4d41	0.062085394
84	0x3e4ecc00	0.20195007
85	0xbef743ce	-0.48293918
86	0xbea4248b	-0.3205913
87	0xbec1c8aa	-0.37848407
88	0x3e847502	0.2587052
89	0xbf0d7c91	-0.552682
90	0x3d66178d	0.056174804
91	0xbe292a57	-0.16520058
92	0x3e15155a	0.14558926
93	0xbfa16ac5	-1.2610708
94	0x3e499499	0.19685592
95	0xbe9f42a6	-0.31105536
96	0x3dcd50e6	0.10025196
97	0x3f4fcb28	0.81169367
98	0x3e2abb46	0.16673002
99	0xbda746f4	-0.0816783
100	0xbfd797d2	-1.6843207
101	0xbe5fc9a8	-0.2185427
102	0x3eabc8ac	0.33551538
103	0x3eb9191a	0.36151963
104	0xbef70ff6	-0.48254365
105	0xbd39f154	-0.045396164
106	0xbf1fdf00	-0.62449646
107	0xbf33b39b	-0.7019593
108	0xbd6c973e	-0.057761423
109	0xbf177038	-0.5915561
110	0xbe9c4a82	-0.30525595
111	0x3e565901	0.2093239
112	0x3d5dff80	0.054198742
113	0x3ee3f2f3	0.44521293
114	0xbf0b2a63	-0.5436155
115	0x3f495db9	0.78658634
116	0x3f2ebff4	0.6826165
117	0x3e4b3127	0.19842969
118	0xbee65a29	-0.44990662
119	0xbe9d4f5b	-0.30724606
120	0x3ec81d28	0.39084744
121	0x3e9d6e8a	0.30748397
122	0xbf3ff2b7	-0.7497973
123	0x3ea10b65	0.31454006
124	0x3c5b4f6d	0.013385636
125	0x3e39f116	0.18158373
126	0x3db754db	0.08951732
127	0xbd99a840	-0.07502794
128	0xbf5a440c	-0.8526008
129	0xbda5b54b	-0.080912195
130	0xbebe1746	-0.3712713
131	0x3eb805ea	0.35942012
132	0x3ed728ab	0.42023215
133	0x3eddb709	0.43303707
134	0xbf384c42	-0.7199136
135	0x3f2a9b04	0.66642785
136	0x3e967b70	0.2939105
137	0xbf681226	-0.9065269
138	0xbb04559e	-0.0020192633
139	0xbe1d492f	-0.15359949
140	0xbe987db0	-0.29783392
141	0xbe712ba5	-0.23551805
142	0xbf098121	-0.5371266
143	0xbf331745	-0.6995738
144	0x3f108aae	0.5646161
145	0xbdbe6e38	-0.09298366
146	0xbe0eeec1	-0.13958265
147	0xbeca1842	-0.39471632
148	0xbde27277	-0.11056989
149	0x3d432345	0.047641058
150	0x3eaa235d	0.33230105
151	0x3eb8d601	0.36100772
152	0xbe55aefa	-0.2086753
153	0xbfa523b6	-1.2901523
154	0x3e3d3e85	0.1848088
155	0xbf0e1ec3	-0.5551569
156	0x3d9fa9aa	0.07796033
157	0xbf13dcfa	-0.5775906
158	0xbf21030f	-0.6289529
159	0x3de6ef76	0.11276142
160	0x3e85f4dc	0.26163375
161	0xbd13c598	-0.036077112
162	0x3ec6410e	0.38721508
163	0xbf8da0f5	-1.1064745
164	0x3ea76490	0.3269391
165	0x3e9b1c49	0.30295017
166	0x3eb3db4b	0.35128245
167	0xbde7694d	-0.112993814
168	0x3fa1a3f4	1.262816
169	0x3c0ef62c	0.008725684
170	0xbe0efde8	-0.13964045
171	0xbe26eb4c	-0.16300696
172	0xbc8eeeb8	-0.017447814
173	0xbe741117	-0.23834644
174	0x3e508743	0.20364098
175	0x3e58c776	0.21169838
176	0x3f4ec19e	0.80764186
177	0xbebcfb40	-0.3691044
178	0x3e930c78	0.2872045
179	0x3f217ec7	0.6308407
180	0xb92f6c59	-0.00016729663
181	0xbea3b663	-0.31975088
182	0xbf0a9e3a	-0.54147685
183	0xbdf51f4d	-0.11968861
184	0x3ea89711	0.32927755
185	0x3e992a6b	0.29915175
186	0x3e87fb54	0.26558936
187	0xbe21f1f6	-0.15814957
188	0x3f3eeed7	0.7458319
189	0xbe08c92e	-0.13357994
190	0xbe2bddea	-0.16783872
191	0xbdb8b099	-0.09018058
192	0x3f4f19ab	0.8089854
193	0xbe43ac97	-0.19108807
194	0x3e9d8526	0.30765647
195	0x3f2e9171	0.68190676
196	0x3e677fe4	0.2260738
197	0x3ea700fc	0.3261794
198	0xbe97e782	-0.29668814
199	0xbe38e109	-0.18054594
200	0x3e34d2ca	0.17658535
201	0xbd1f8683	-0.03894664
202	0x3ecae2fd	0.39626303
203	0xbea07b07	-0.31343862
204	0xbd0f3b7b	-0.034968834
205	0x3de1795d	0.11009476
206	0x3f947fb8	1.1601477
207	0xbe03a6f8	-0.12856662
208	0xbdee1447	-0.11624961
209	0xbf59aa30	-0.8502531
210	0x3dc3dc1c	0.09563467
211	0xbe304db0	-0.17217135
212	0xbfc808af	-1.562765
213	0xbe1f6fbf	-0.15569972
214	0x3f014763	0.5049955
215	0x3ea6c61d	0.32573023
216	0xbf4b9ec7	-0.7953915
217	0xbe62eb84	-0.22160155
218	0xbe13fcfd	-0.14451976
219	0x3f12f703	0.5740816
220	0x3ec16912	0.37775475
221	0xbf13ec84	-0.5778277
222	0x3f2d0665	0.6758788
223	0xbd6d43bc	-0.057925925
224	0xbe73e3c8	-0.2381736
225	0x3ea265cb	0.31718287
226	0x3f5bbe6e	0.8583745
227	0x3d3e96d1	0.04653055
228	0xbc5bdc7a	-0.013419265
229	0xbf5d619f	-0.8647708
230	0xbede8325	-0.4345943
231	0x3f18a224	0.59622407
232	0x3f43aec3	0.7643854
233	0xbebb2e4a	-0.36558753
234	0x3ba71274	0.0050986353
235	0x3f4df042	0.8044473
236	0x3e574eaa	0.21026102
237	0x3e9ba90b	0.30402407
238	0x3e604755	0.21902211
239	0x3f28c068	0.6591859
240	0x3e743523	0.23848395
241	0xbea6bc36	-0.3256547
242	0x3e4bee8d	0.19915219
243	0xbf1003ac	-0.562556
244	0x3d36fab7	0.044672694
245	0x3d5af603	0.05345727
246	0x3f507f92	0.81444657
247	0x3f0b5e9a	0.54441226
248	0x3d17276a	0.036902823
249	0x3f218e56	0.6310781
250	0x3f00b334	0.5027344
251	0x3eb339af	0.35004947
252	0xbf390f79	-0.72289234
253	0xbf0ded30	-0.55440044
254	0x3f210933	0.6290466
255	0xbf32c170	-0.6982641

classifier.0.bias f4 [128]
0	0xba3178bc	-0.0006770005
1	0x3f1cac60	0.61200523
2	0x3e4434f8	0.19160831
3	0xbc68981f	-0.014196425
4	0xbed6123a	-0.4181078
5	0xbcb35bd3	-0.021894371
6	0x3e07f6b9	0.13277711
7	0x3e87b4cc	0.26505125
8	0x3f04339d	0.51641256
9	0x3f449761	0.76793486
10	0x3ec5b7fa	0.38616925
11	0x3daab7f7	0.0833587
12	0x3e235c47	0.1595317
13	0x3e84f228	0.25966
14	0xbe499de6	-0.1968914
15	0x3f030634	0.5118134
16	0x3e3d5e2d	0.18492956
17	0x3f1d16d4	0.6136296
18	0x3db9dcb0	0.09075296
19	0x3ef20885	0.47272125
20	0x3f2cadfe	0.6745299
21	0xbeaf4a37	-0.3423631
22	0x3f0ce1e8	0.55032206
23	0x3f0e0655	0.5547841
24	0x3e459353	0.19294481
25	0x3cd219a7	0.025646998
26	0x3e605cf7	0.21910463
27	0x3ed0fb87	0.408169
28	0x3f381c64	0.7191832
29	0xbdd1c4c1	-0.10242606
30	0xbe891472	-0.2677341
31	0xbe9e7a69	-0.30952767
32	0xbeb107a7	-0.3457615
33	0x3e525ce5	0.20543249
34	0x3f469b2e	0.77580535
35	0x3e91648b	0.2839702
36	0xbee1341c	-0.4398507
37	0x3f10e7a1	0.5660344
38	0x3e8b1a90	0.27168703
39	0xbda04238	-0.0782513
40	0x3edaab96	0.42709035
41	0xbe30b471	-0.17256333
42	0x3e0dac47	0.1383525
43	0xbd5a7393	-0.053332876
44	0xbf00114c	-0.5002639
45	0xbdfd5b13	-0.12370887
46	0x3f200c61	0.6251889
47	0x3ea38764	0.31939232
48	0x3f2e4bfd	0.680847
49	0x3d903b90	0.07042611
50	0xbe511729	-0.20418991
51	0x3e0453e7	0.12922631
52	0x3e6b8ceb	0.23002975
53	0xbeaf44c8	-0.34232163
54	0x3eace36f	0.33767268
55	0xbbca7c1f	-0.006179347
56	0x3f338da1	0.70137984
57	0xbe4bbd24	-0.1989637
58	0xbdc6548c	-0.09684095
59	0xbd9a3de5	-0.07531337
60	0x3da43515	0.08017937
61	0x3ed58f59	0.41710928
62	0x3f16154b	0.5862624
63	0x3ec308cc	0.3809265
64	0xbeaace17	-0.3336036
65	0x3f1d8845	0.61536056
66	0x3e265070	0.16241622
67	0x3dd9c140	0.10632563
68	0x3e3e3fe5	0.18579061
69	0x3e888cab	0.2666982
70	0xbdadb9b5	-0.084826864
71	0x3e435f7e	0.19079396
72	0xbe93447d	-0.2876319
73	0x3d9cf9f3	0.076648615
74	0x3e7d3006	0.2472535
75	0x3e47b09f	0.1950097
76	0xbd69c79b	-0.057075124
77	0x3d9ae8f5	0.07563964
78	0xbeac2daa	-0.3362859
79	0x3ebd4899	0.3696945
80	0x3e6dabe4	0.23210102
81	0xbe891837	-0.26776287
82	0xbe613834	-0.21994096
83	0xbe9d061d	-0.30668727
84	0xbe49cd9a	-0.19707337
85	0xbebd52e1	-0.36977294
86	0xbddbaad0	-0.10725939
87	0xbe66416f	-0.22485898
88	0x3e3182aa	0.17335
89	0xbea74d29	-0.32676056
90	0xbd4533f0	-0.048145235
91	0xbd8731e1	-0.066013105
92	0xbed4c130	-0.4155364
93	0xbeb2c5f8	-0.34916663
94	0x3f471944	0.7777293
95	0xbe316629	-0.17324127
96	0x3d397030	0.045273006
97	0xbe8803f5	-0.2656552
98	0xbd4e175c	-0.050315246
99	0x3cce306c	0.025169574
100	0xbef4f935	-0.4784638
101	0xbed45b3d	-0.4147586
102	0xbd045e8f	-0.03231674
103	0xbf0b5143	-0.5442087
104	0x3e3cbe68	0.18432009
105	0x3bfef7ee	0.0077810204
106	0x3da56dbd	0.080775715
107	0x3effdf8d	0.49975243
108	0x3e598d51	0.21245314
109	0x3ce4a37e	0.02790999
110	0xbe783d8a	-0.24242225
111	0xbe00219b	-0.1251282
112	0x3e4ce3e9	0.20008816
113	0xbf486560	-0.78279686
114	0x3eca9f2e	0.3957457
115	0xbed3229c	-0.41237342
116	0x3f2533e3	0.645323
117	0xbe79d61c	-0.24398082
118	0x3f08286d	0.53186685
119	0x3f1e167b	0.6175305
120	0x3e2c9ea4	0.16857392
121	0x3e918bb0	0.28426886
122	0xbd92a176	-0.071597025
123	0xbdede539	-0.116159864
124	0xbf16829a	-0.5879303
125	0x3eb2dbee	0.34933418
126	0x3e90f233	0.28309783
127	0x3dbf3aa4	0.09337357

classifier.3.weight f4 [16, 128]
0	0xbc1de294	-0.00963654
1	0x3bdfd752	0.006831088
2	0xbdb78017	-0.08959978
3	0xbc940c42	-0.018072251
4	0xbe0530b8	-0.13006866
5	0xbd8bfb1e	-0.06835006
6	0xbd0edb84	-0.034877315
7	0xbc3b7076	-0.011440387
8	0xbd95e20b	-0.07318505
9	0xbd84ed8b	-0.0649062
10	0xbd92b2d6	-0.071630165
11	0x3cbd6b87	0.023122562
12	0xbdcfe05a	-0.101502135
13	0xbb576339	-0.0032865538
14	0xbdfeddf9	-0.12444682
15	0xbc1625a7	-0.00916425
16	0x3d3ef60b	0.046621364
17	0xbd81c21c	-0.063358516
18	0xbdde9782	-0.108687416
19	0xbc2f4a07	-0.010698802
20	0x3d1f02ae	0.038820915
21	0xbdbf3b2a	-0.093374565
22	0xbd7d40ca	-0.061829366
23	0xbd9373f7	-0.07199853
24	0xbd170ae6	-0.036875628
25	0xbdf9a22c	-0.12189135
26	0xbda4a4f2	-0.08039273
27	0x3d828df0	0.06374729
28	0xbd0ae9a4	-0.033914223
29	0xbda40ff2	-0.08010854
30	0xbd469d26	-0.048489712
31	0x3d57b5d0	0.052663624
32	0x3d81e2ff	0.06342124
33	0x3d1a26f7	0.037634816
34	0x3c503e7b	0.012710209
35	0xbd9d0a83	-0.076680206
36	0xbd897a28	-0.067127526
37	0xbd52cac6	-0.05146291
38	0xbd49d697	-0.049276914
39	0xbd018a74	-0.03162618
40	0xbcba980d	-0.022777582
41	0xbdae603d	-0.0851445
42	0xbc8188fc	-0.01581239
43	0xbba069d0	-0.0048954263
44	0x3b363049	0.0027799776
45	0xbce297f1	-0.027660342
46	0xbc780b94	-0.015139479
47	0x3cfb7619	0.030695962
48	0xbd9d6c2a	-0.07686646
49	0xbdb5fe00	-0.08886337
50	0xbce94b13	-0.028478181
51	0xbe018ea0	-0.12652063
52	0xbde953ac	-0.11392912
53	0xbd6d2b0f	-0.057902392
54	0xbca62546	-0.020281445
55	0xbd4d3ed1	-0.050108735
56	0xbd46095c	-0.04834877
57	0x3d1aa190	0.037751734
58	0xbcde2840	-0.027118802
59	0xbdd4b03e	-0.10385178
60	0xbda81c91	-0.082085736
61	0x3c8eff2a	0.017455656
62	0xbcc3b885	-0.023891697
63	0x3c7b8eeb	0.0153538985
64	0xbd02f677	-0.03197333
65	0x3d918af6	0.07106583
66	0xbca1e581	-0.019762756
67	0xbba5e190	-0.0050622895
68	0xbd21c94c	-0.039498612
69	0xbd6cfcf0	-0.057858407
70	0x3bb9bc8e	0.0056682294
71	0xbd4737a1	-0.048637036
72	0xbc1cafe3	-0.009563419
73	0x3da06b1f	0.07832932
74	0xbd2e63e1	-0.04257572
75	0x3d0cc319	0.034365747
76	0xbd889658	-0.06669301
77	0xbbd90fdd	-0.0066242055
78	0x3cb7fb09	0.02245857
79	0xbdb42ab4	-0.087972075
80	0xbd84e537	-0.06489032
81	0x3d868a4b	0.06569346
82	0xbd217708	-0.039420158
83	0xbd7a0f97	-0.061050024
84	0x3d29b5a7	0.041433003
85	0xbdb234cf	-0.08701479
86	0xbd95a5c9	-0.07307012
87	0x3d5bcbc3	0.05366112
88	0xbda611cc	-0.08108863
89	0xbdad7aff	-0.08470725
90	0xbd095b18	-0.03353414
91	0xbde2acc1	-0.110681064
92	0xbd8d7cda	-0.06908579
93	0xbd62c6ae	-0.055365257
94	0xbce16da2	-0.027518097
95	0xbc89ccba	-0.016821254
96	0x3c5bf649	0.013425418
97	0xbd4d24ed	-0.050084043
98	0xbdca1aab	-0.09868368
99	0xbd14ef5a	-0.036361076
100	0xbda5b8d8	-0.08091897
101	0xbc20b8fb	-0.009809728
102	0x3d556306	0.05209639
103	0x3d0ce5da	0.03439889
104	0xbb28105f	-0.0025644524
105	0x3d5574a4	0.05211319
106	0x3c3040f6	0.010757675
107	0xbdb3282d	-0.08747897
108	0xbca16af0	-0.019704312
109	0xbd305982	-0.04305411
110	0xbc96b30c	-0.018395923
111	0x3d8af077	0.06784146
112	0xbda078dc	-0.07835552
113	0x3a7bcf50	0.0009605782
114	0xbd9145cb	-0.0709339
115	0xbd281ba6	-0.041041993
116	0x3c851d38	0.016249284
117	0x3d32605f	0.043548938
118	0xbd3a1c70	-0.045437276
119	0x3d1fe5b8	0.039037436
120	0xbcd44984	-0.025913961
121	0xbd79eefc	-0.06101893
122	0xbd9f1ee8	-0.07769567
123	0xbc9ca1b4	-0.019120075
124	0xbd79252d	-0.06082647
125	0xbd64324e	-0.055712037
126	0xbd2a6128	-0.04159656
127	0xbd34cfdc	-0.044143543
128	0xbdf63888	-0.12022501
129	0x3d749d84	0.05972053
130	0x3e83951c	0.256997
131	0xbdee1378	-0.11624807
132	0xbc65eb11	-0.014033095
133	0xbeaebc35	-0.34127966
134	0x3d99077a	0.07472129
135	0x3d96f0fa	0.073701814
136	0x3d70e60d	0.058813144
137	0x3eafc8d6	0.34332913
138	0x3daaabb4	0.08333531
139	0x3d0889b4	0.03333445
140	0x3ebd576d	0.36980763
141	0x3e162644	0.14663035
142	0x3ea89bab	0.32931265
143	0x3dfc126b	0.123082004
144	0x3e7bdbc1	0.24595548
145	0x3ded31af	0.11581742
146	0xbd43f62e	-0.047842197
147	0xbe2a79a3	-0.16647963
148	0x3edea10b	0.4348224
149	0x3f4ab300	0.7917938
150	0x3cfb31e0	0.03066343
151	0x3eb7d211	0.35902455
152	0xbe2f3bec	-0.17112702
153	0xbc285cd6	-0.01027604
154	0xbe09284d	-0.1339428
155	0xbce0c1b4	-0.027436115
156	0xbd8e55db	-0.069499694
157	0x3ebf55e7	0.37370226
158	0x3ec1ab9d	0.37826243
159	0xbcb2aeac	-0.021811806
160	0x3db2708e	0.08712874
161	0xbe8de1e0	-0.2771139
162	0xbd3bb7cb	-0.045829576
163	0xbccc856b	-0.024965962
164	0xbaf9a47a	-0.001904621
165	0x3e4fee23	0.20305686
166	0xbe4b392d	-0.1984603
167	0x3e5545eb	0.20827453
168	0x3ea4bc60	0.3217497
169	0x3e27b0c6	0.16376027
170	0xbc727ac9	-0.014799782
171	0x3eaf9aae	0.342977
172	0xbe6f3a58	-0.233621
173	0xbe142637	-0.14467703
174	0x3e140ab8	0.14457214
175	0x3e6e9832	0.23300245
176	0x3c579b05	0.013159518
177	0xbe3ed6b2	-0.18636587
178	0x3db4b472	0.0882348
179	0xbef8bb68	-0.4858048
180	0x3e8fcef2	0.28087574
181	0x3d1c093f	0.038094755
182	0x3ec2b542	0.38028914
183	0xbe910807	-0.28326437
184	0x3d6b00f1	0.057373945
185	0x3dd63860	0.104599714
186	0xbd1769b5	-0.036966044
187	0x3efaf102	0.49012
188	0x3c813f8e	0.015777376
189	0x3e9a4264	0.30128777
190	0x3dd1cd1e	0.10244201
191	0xbe593f9b	-0.2121567
192	0x3e520a2d	0.20511694
193	0x3def5c7b	0.11687561
194	0xbe40a5f6	-0.18813309
195	0x3d442246	0.04788425
196	0x3e89e6fa	0.26934034
197	0x3e4e99c9	0.20175852
198	0xbc9b2ccb	-0.018942257
199	0x3d30b437	0.043140616
200	0xbbc6d2a6	-0.0060675917
201	0xbdae9f09	-0.08526427
202	0x3ec9d780	0.39422226
203	0x3f01e25d	0.5073603
204	0x3e520164	0.20508343
205	0x3e703461	0.23457481
206	0xbe414380	-0.18873405
207	0x3e0b8ab3	0.13627128
208	0x3d46e505	0.048558254
209	0xbdcdc737	-0.10047763
210	0xbda3cad8	-0.07997674
211	0x3ea5b420	0.32363987
212	0x3f5a05ae	0.85164917
213	0xbd9f4209	-0.07776267
214	0x3e57d300	0.21076584
215	0x3ed16461	0.40896896
216	0x3f2238d5	0.6336797
217	0xbd7f1177	-0.062272515
218	0xbed2f13f	-0.4119968
219	0x3e855ff6	0.26049775
220	0xbe411d90	-0.18858933
221	0xbe242b64	-0.16032177
222	0x3e4021e2	0.18762925
223	0x3ee69707	0.450371
224	0x3dbf0fdb	0.09329196
225	0xbe9ec669	-0.3101075
226	0x3e728d52	0.23686722
227	0x3ed4944b	0.4151939
228	0xbe787e82	-0.24267009
229	0xbb90818b	-0.004409974
230	0xbe064068	-0.13110507
231	0xbded4eaa	-0.115872696
232	0x3eb43190	0.35194063
233	0x3b335cd2	0.0027368558
234	0xbd0a978f	-0.033835944
235	0x3e1e4263	0.15455012
236	0x3c571e24	0.013129745
237	0xbe422692	-0.18960026
238	0xbe5def2f	-0.21673273
239	0x3ee4c036	0.44677895
240	0xbe646011	-0.22302271
241	0x3de6d4d4	0.112710625
242	0xbe7659e8	-0.24057734
243	0xbd64b64a	-0.055837907
244	0xbc164d81	-0.009173752
245	0xbd9b2ef0	-0.07577312
246	0xbd3cb3a6	-0.046069764
247	0x3e060717	0.13088642
248	0x3eea5ab9	0.4577234
249	0xbe484db8	-0.19560897
250	0x3cc9b396	0.024621766
251	0xbe194ee9	-0.14971508
252	0xbde76048	-0.11297661
253	0xbe94a439	-0.29031542
254	0x3e004148	0.12524903
255	0xbe335928	-0.17514479

classifier.3.bias f4 [16]
0	0xbd353e38	-0.04424879
1	0x3e9e9f8a	0.30981094
2	0xbd736d3b	-0.059430342
3	0xbdffbf8d	-0.12487707
4	0xbd50b6c3	-0.050955545
5	0x3dcb9322	0.09940173
6	0x3d17b1b4	0.037034705
7	0xbd731295	-0.059343893
8	0x3e9e0956	0.30866498
9	0x3ee7ca78	0.4527166
10	0x3ef346fc	0.47515094
11	0xbdb891e2	-0.090122
12	0x3e57c8ff	0.21072768
13	0xbbd78269	-0.0065768254
14	0x3d4c4e1d	0.049879182
15	0x3e436b73	0.19083957

classifier.6.weight f4 [22, 16]
0	0xbdcf403b	-0.10119673
1	0xbfb144ff	-1.3849181
2	0xbf92dad8	-1.1473036
3	0xbf847330	-1.0347652
4	0xbfa08904	-1.2541814
5	0xbf2f0a81	-0.683754
6	0x3e0a4686	0.13503465
7	0xbf312fad	-0.6921337
8	0x3e9c8584	0.30570614
9	0xbe984f10	-0.2974782
10	0xbf1d6e35	-0.6149629
11	0x3e86e0a8	0.26343274
12	0x3c1fbfde	0.009750335
13	0x3e702b6a	0.23454061
14	0xbf866d0f	-1.0502032
15	0xbec9873f	-0.39360997
16	0xbc8d1d97	-0.017226024
17	0xbf3bd2a1	-0.7336827
18	0xbb989298	-0.004656147
19	0xbf8d1067	-1.1020631
20	0x3d2600e9	0.04052821
21	0xbf64f866	-0.89441526
22	0xbf24f52c	-0.644366
23	0x3e3f77db	0.18698065
24	0x3e536c77	0.20646845
25	0x3ea51307	0.3224108
26	0xbf8ed981	-1.1160127
27	0x3d9d2b6b	0.07674297
28	0x3e8c9605	0.27458206
29	0xbe24d139	-0.16095437
30	0xbd90bf8e	-0.07067786
31	0xbfb60232	-1.421942
32	0xbe01a972	-0.12662295
33	0x3d9c8afe	0.07643698
34	0xbfc483ed	-1.535276
35	0x3e06595e	0.13120028
36	0x3ddb5944	0.107103854
37	0x3d905714	0.07047859
38	0x3e8c5c16	0.27414006
39	0xbe57e367	-0.21082841
40	0xbe40997f	-0.18808554
41	0xbe29ad27	-0.16569959
42	0x3daf72fc	0.085668534
43	0xbe151a82	-0.14560893
44	0xbeebca85	-0.46052948
45	0xbe1fb208	-0.15595257
46	0x3d8f1bd4	0.0698773
47	0xbfb20fb2	-1.391104
48	0x3e09ff85	0.13476379
49	0xbfacb255	-1.3491923
50	0xbe255304	-0.16144949
51	0x3b134f4e	0.002247769
52	0xbfaa6938	-1.331336
53	0x3e810cc2	0.25205046
54	0xbf302487	-0.68805736
55	0x3ea1ec02	0.31625372
56	0xbed099d2	-0.40742356
57	0xbd8eac0f	-0.06966411
58	0xbdab7294	-0.083714634
59	0x3dc4030a	0.09570892
60	0x3eac6097	0.33667442
61	0xbe1e90a3	-0.15484862
62	0x3d059da8	0.032621056
63	0xbf4096ff	-0.752304
64	0xbd6dce88	-0.05805829
65	0x3dd414cf	0.103555314
66	0xbf17ca72	-0.5929328
67	0xbf0f6ebb	-0.56028336
68	0x3e07fff7	0.13281237
69	0xbf30b61b	-0.6902787
70	0xbf9c98cf	-1.2234133
71	0xbf44ec80	-0.7692337
72	0x3e4dfaa6	0.20115146
73	0xbee72b0e	-0.45150036
74	0xbf117bcb	-0.5682952
75	0xbfac9852	-1.3483984
76	0xbf337fda	-0.7011696
77	0x3e80a5cf	0.25126502
78	0xbf547544	-0.82991433
79	0x3e9d6a5a	0.30745202
80	0xbbb1e783	-0.0054292097
81	0xbfca4378	-1.580184
82	0x3e32dd47	0.17467223
83	0xbf43fca4	-0.76557374
84	0x3e3ad196	0.18244013
85	0x3e508232	0.20362166
86	0xbedf4edf	-0.4361486
87	0x3e8c3f7b	0.27392182
88	0xbf7beaa5	-0.98404914
89	0x3d75af32	0.059981532
90	0x3ea951e3	0.33070287
91	0xbf46e615	-0.7769483
92	0xbed1acf7	-0.40952274
93	0xbe684133	-0.22681122
94	0xbf94dcf2	-1.1629927
95	0x3d1fcfd6	0.039016567
96	0x3df27517	0.11838739
97	0xbe5dce63	-0.21660762
98	0x3e3fac4b	0.18718068
99	0x3cef2f41	0.029197337
100	0x3e7ff7ec	0.24996918
101	0xbe64e7ba	-0.22354022
102	0xbe2844f9	-0.16432561
103	0x3e743615	0.23848756
104	0xbe042759	-0.12905635
105	0x3e65b01f	0.22430466
106	0x3e1b1b59	0.15147151
107	0xbf3a8688	-0.7286153
108	0x3e3efd9c	0.18651432
109	0xbf48067e	-0.78134906
110	0xbf844195	-1.0332514
111	0xbfa069d1	-1.2532293
112	0xbd301659	-0.042990062
113	0xbda14706	-0.07874875
114	0xbf5f0488	-0.8711629
115	0x3e14f95c	0.14548248
116	0xbfc23cda	-1.517482
117	0xbf91fa41	-1.1404496
118	0x3d0a5f49	0.033782277
119	0xbdcc4e50	-0.099758744
120	0x3e887eb2	0.2665916
121	0xbf5be85e	-0.8590144
122	0xbfaed228	-1.3657885
123	0x3e68ddc9	0.22740854
124	0x3c4abaea	0.012373665
125	0x3deb1951	0.11479438
126	0xbb9a8ec9	-0.0047167283
127	0xbf98d1cc	-1.1939025
128	0x3d92a55f	0.07160448
129	0xbf9625c8	-1.173028
130	0x3e094ecd	0.13408966
131	0xbf98a817	-1.1926297
132	0x3da4db0b	0.08049592
133	0x3cdd52f2	0.02701709
134	0x3dba6f17	0.0910322
135	0xbecb57d9	-0.3971546
136	0x3d837b36	0.06419985
137	0x3e79b2a3	0.24384551
138	0x3e36c438	0.17848289
139	0xbf0c23e9	-0.54742295
140	0xbe95dccd	-0.2927002
141	0xbcd2c14b	-0.025726935
142	0xbefd0e47	-0.49424955
143	0x3d07c20e	0.03314405
144	0xbd343cab	-0.04400317
145	0xbf3f9d8b	-0.74849766
146	0xbf270bd6	-0.65252435
147	0xbf408218	-0.7519851
148	0xbe082c94	-0.13298255
149	0x3e90e260	0.2829771
150	0x3e15398c	0.14572734
151	0xbf415e5c	-0.75534606
152	0xbfccb6d3	-1.5993294
153	0x3e791aae	0.24326584
154	0xbe5ba887	-0.21451007
155	0x3e1bc5b1	0.15212132
156	0x3df538b6	0.119737074
157	0xbeb3b442	-0.35098463
158	0x3df19daf	0.11797654
159	0xbf0ac99f	-0.542139
160	0xbe11e42f	-0.14247201
161	0x3e28e696	0.16494212
162	0xbf86588e	-1.0495775
163	0x3ea474c4	0.32120335
164	0xbeaf3722	-0.3422175
165	0xbd0a5aac	-0.033777878
166	0x3ea1d067	0.3160431
167	0xbed61331	-0.41811517
168	0xbf595347	-0.84892696
169	0xbf7c65ad	-0.98592645
170	0xbed71af2	-0.42012745
171	0xbb018ffa	-0.0019769655
172	0x3e3ebef0	0.18627524
173	0xbf5e3933	-0.8680603
174	0x3e07eb1d	0.13273282
175	0xbfa99647	-1.3248986
176	0xbd4ffee6	-0.0507802
177	0xbdb350cf	-0.087556474
178	0x3ce7ef3a	0.028312314
179	0xbe0079a1	-0.12546398
180	0x3e13cca9	0.1443354
181	0x3e2511d9	0.1612009
182	0x3e39adbb	0.18132679
183	0x3d3cb006	0.046066307
184	0xbf8a4d09	-1.0804759
185	0x3dbfe957	0.09370678
186	0x3e8d4a5f	0.27595803
187	0xbdb7f027	-0.08981352
188	0x3d6577e3	0.056022536
189	0xbf64a629	-0.8931604
190	0xbe9eaa26	-0.30989188
191	0xbe8968c0	-0.2683773
192	0x3e3f3250	0.18671536
193	0x3bf719c9	0.0075409156
194	0x3d62952f	0.055318054
195	0xbf6363e8	-0.8882432
196	0xbf88db86	-1.0691993
197	0x3e8bf173	0.2733265
198	0xbf81cac0	-1.0139999
199	0xbf0028ff	-0.50062555
200	0xbf14b5fd	-0.5809019
201	0xbf695f6b	-0.9116122
202	0x3e83aa5a	0.25715905
203	0xbf1114ae	-0.5667218
204	0xbeea573c	-0.4576968
205	0x3d8866f0	0.06660259
206	0x3d5740a6	0.052551888
207	0x3e51e018	0.20495641
208	0xbe18f3b2	-0.14936712
209	0x3d81c324	0.06336048
210	0xbe0502f6	-0.12989411
211	0x3e3df9bf	0.18552302
212	0xbf86dbff	-1.0535887
213	0x3e4e5e2f	0.20153116
214	0x3e10f835	0.14157183
215	0x3cdf550d	0.027262235
216	0xbf88a915	-1.06766
217	0xbfaf72b0	-1.3706875
218	0x3e4ffe1c	0.20311779
219	0xbc48193a	-0.012213046
220	0xbf1a76db	-0.6033761
221	0xbde27a7e	-0.1105852
222	0x3d23e2d6	0.04001125
223	0xbdceeb53	-0.10103478
224	0x3de5a30f	0.112127416
225	0x3e70c54f	0.23512767
226	0xbdfe6760	-0.12422061
227	0x3ea2f2b8	0.31825805
228	0xbda61c48	-0.08110863
229	0xbfd02e25	-1.6264082
230	0x3eb13a0e	0.34614605
231	0xbf61a698	-0.88144827
232	0xbf00b811	-0.50280863
233	0xbf7b5d33	-0.98189086
234	0xbf8eaff9	-1.1147453
235	0xbfa5b569	-1.2945987
236	0xbf289399	-0.65850216
237	0xbf8fafc1	-1.1225511
238	0x3dac6fce	0.084197626
239	0xbe387556	-0.1801351
240	0xbd46eae8	-0.048563868
241	0x3e24665e	0.16054675
242	0x3e59d57e	0.21272847
243	0x3e6540e9	0.22388043
244	0x3d0b4912	0.034005232
245	0xbf859e8d	-1.0439011
246	0xbf8625bc	-1.0480266
247	0x3e8fbb2f	0.28072497
248	0x3d7a14b0	0.061054885
249	0xbefdacae	-0.49545807
250	0xbf669fab	-0.90087384
251	0xbf821a16	-1.0164211
252	0xbf1e2f4e	-0.6179093
253	0xbfae5d99	-1.3622314
254	0xbe02976f	-0.1275308
255	0xbe21d734	-0.1580475

classifier.6.bias f4 [22]
0	0x3e143286	0.14472398
1	0xbdf87c8e	-0.12133132
2	0xbd05201f	-0.032501336
3	0xbee8672d	-0.45391217
4	0x3dad8382	0.08472349
5	0xbe8b6fb9	-0.27233675
6	0x3b572efe	0.0032834406
7	0xbe8004ee	-0.2500376
8	0x3efa80f6	0.48926514
9	0xbe2c1c0a	-0.16807571
10	0xbaf40a00	-0.0018618703
11	0x3d613c02	0.05498887
12	0x3ead2a03	0.33821115
13	0xbe6107d0	-0.21975636
14	0x3eb9238d	0.36159936
15	0xbf19e6bf	-0.60117716
16	0xbec98301	-0.3935776
17	0x3d53becb	0.051695626
18	0x3d814432	0.06311835
19	0x3edcf868	0.4315827
20	0xbf4d7bda	-0.8026711
21	0x3ea20437	0.3164384
